cnn.pth (torch_old, 248215 bytes, 10 tensors)

conv.0.weight f4 [6, 1, 3, 3]
000000 4a bd 96 3e d2 1b fc bd e1 fb e5 bc 9d 0c f5 3e
       0.2944129 -0.12309994 -0.028074207 0.47861186
000010 8a 8c 24 be 62 20 bb be c2 26 d5 3e d9 3a b8 3e
       -0.16069236 -0.36548144 0.41631132 0.35982397
000020 7f bc 98 3d 2c f8 b8 bd 6a da 37 be 3f 60 b0 bc
       0.07457828 -0.0903171 -0.17954412 -0.021530269
000030 92 22 8b be 13 e5 5d be ab a0 9c be c6 96 72 3e
       -0.27174813 -0.21669416 -0.3059133 0.23690328
000040 97 e4 da 3e 5f 7a 53 3e 0c 73 24 3e 1d 8c d2 3e
       0.42752525 0.2065215 0.16059512 0.41122523
000050 b5 6f b0 3e d7 6c 63 3c 92 c7 09 bd e1 1e 44 3e
       0.34460226 0.01388093 -0.03363759 0.19152404
000060 ec 03 ad be c2 42 81 be e1 15 94 be a2 a6 2f 3e
       -0.33792055 -0.25246245 -0.28922942 0.17153409
000070 23 40 c8 bc bf 98 c0 bc 6b de 8a be a4 84 4b be
       -0.024444645 -0.023510335 -0.27122816 -0.19874817
000080 cb f1 88 3c f7 13 be 3e b8 a0 b6 3e 90 e1 30 3e
       0.016716858 0.37124607 0.35669494 0.17273545
000090 53 8f fc 3e 03 81 65 3f c6 27 fc 3e 24 30 38 3f
       0.49328098 0.8964998 0.49249095 0.71948457
0000a0 df 64 74 3f d7 66 60 3f db 9a 63 bc 07 37 fb 3d
       0.9546642 0.8765692 -0.013891901 0.12266355
0000b0 79 36 1d 3f 12 6e 13 3f a0 ea 68 3e e6 8a b4 3d
       0.61411244 0.5758983 0.22745752 0.08815555
0000c0 1f f9 42 3f b0 c3 4b 3f 2a 50 d8 3d 4a ef 69 3f
       0.7616138 0.7959547 0.10562165 0.9138075
0000d0 ef 38 3b 3f f9 a6 2d 3f
       0.7313375 0.67832905

conv.0.bias f4 [6]
000000 eb 23 5c 3b b4 1c b0 3d 1c 53 2e ba 1a 30 20 bb
       0.0033590745 0.08599225 -0.00066499575 -0.0024442733
000010 20 6d ce 39 83 3d e4 37
       0.00039372686 2.7208362e-05

conv.3.weight f4 [16, 6, 5, 5]
000000 48 9a 78 3d 16 fc 09 bd c7 5e 51 3d c5 94 a4 3b
       0.06069401 -0.033687674 0.051115777 0.0050226175
000010 da a9 59 bd 2f 96 93 3d 41 d2 bb bd 62 0a 97 3d
       -0.0531405 0.072063796 -0.09170962 0.07375027
000020 d4 99 c3 3c fa 79 c5 3c 1d b8 0e 3d e6 82 97 3c
       0.023877062 0.024106015 0.034843553 0.018495034
000030 6f ee ab 3d a3 e4 fd 3d 25 3b ed bd e8 fd 2a bb
       0.08395087 0.123971246 -0.115835465 -0.0026091281
000040 f3 25 83 bd b7 2d 95 3d d6 ed 5e 3c e6 5c af bd
       -0.064037226 0.0728411 0.013606509 -0.08562641
000050 46 1c 12 3d bc e3 8c bc cb 02 7c 3d 59 86 a2 3d
       0.035671495 -0.017198436 0.0615261 0.07935781
000060 35 a3 8d bd 97 bf 2f bd b0 74 0f 3d 8e 74 50 3d
       -0.06915895 -0.042907324 0.03502339 0.050892405
000070 0d 9e b9 bd c4 9f c8 bd 65 ec ac bd ba 46 15 bd
       -0.09063349 -0.09796098 -0.08443526 -0.036444403
000080 91 ed 7a bd a0 e1 34 bd 80 a8 aa bd b7 be 05 3d
       -0.061261717 -0.044160485 -0.0833292 0.032652583
000090 89 56 64 bb 39 b2 89 3a 2f 31 dc 3c 3d 4e d7 bc
       -0.0034841618 0.0010505385 0.026878921 -0.026282424
0000a0 d9 70 51 bc f2 6e 0b bd c6 9b dc bd 72 fa 52 3d
       -0.012783253 -0.034041353 -0.10771899 0.051508375
0000b0 b3 83 ec bb a4 c6 57 3d 4c b9 9e bd 95 dd aa bd
       -0.007217848 0.052679673 -0.07750186 -0.08343045
0000c0 dc 15 43 3d 08 a9 ca bb 19 76 fc bc e7 5e 71 bd
       0.04762827 -0.006184701 -0.030818032 -0.058928397
0000d0 c1 c6 35 3d 0c d3 e8 3b 2f ca a0 bd 8b 08 9d 3c
       0.044379 0.007105237 -0.078510635 0.019169113
0000e0 25 6f 0c 3d 6a 69 c7 bd e1 3e e8 bd 48 9e be bd
       0.034285683 -0.09736903 -0.11340118 -0.093075335
0000f0 7b 30 bd 3c 53 fd bb bd 71 74 21 3d 95 ed 80 bd
       0.023094406 -0.09179177 0.039417688 -0.06295315
000100 d7 43 cf bc f5 07 7c 3b 37 b5 2f bd 63 74 6b bc
       -0.025300903 0.0038456891 -0.04289743 -0.0143710105
000110 8c 92 11 bd 0e 04 3a ba b6 68 99 b8 36 ba 25 3d
       -0.03554015 -0.0007095941 -7.3151125e-05 0.040460788
000120 fd d9 d1 3c 45 d2 11 3c 10 65 49 bd b1 95 6b bd
       0.02561664 0.00890023 -0.049168646 -0.057515804
000130 3c 2e 86 35 8b 92 14 3c 8e 31 09 bd 16 05 2b bc
       9.997234e-07 0.009068142 -0.033494525 -0.010438224
000140 8d 34 5f 3d f4 4e 4c 3c 12 94 60 3d 7a 57 ac 3c
       0.054493476 0.012469996 0.05482871 0.021037806
000150 b1 b0 35 bb 88 b4 85 bd 30 14 c5 3d 2b 5c b2 3a
       -0.0027723724 -0.06528574 0.09622991 0.001360779
000160 e4 c7 4b bd 09 4c d8 bc 14 10 42 3d cd ca 81 3d
       -0.049751177 -0.026403444 0.047378615 0.06337509
000170 10 90 2a 3d b4 da a3 3c 9b b2 97 bd 55 df b2 3d
       0.041641295 0.020001747 -0.07407113 0.087340035
000180 92 e6 e8 bc 50 87 89 3d f5 ef 76 bd 52 54 ae 3c
       -0.028430257 0.06715262 -0.060287435 0.021280441
000190 07 4e 90 3d c7 4a c6 3d 09 0a ac 3d 3b d4 cd bc
       0.070461325 0.096822314 0.084003516 -0.025125613
0001a0 0a ef d5 bc 2e 31 a1 3d 51 ce 1f 3d 39 b7 4d 3e
       -0.02611496 0.078707084 0.039015118 0.20089425
0001b0 87 f4 f4 3c de e8 39 be a8 d2 cb bd db 11 d2 3d
       0.029901756 -0.18155238 -0.09952289 0.10257312
0001c0 1a af 6f 3e 2f 4b 92 bd 4c a2 ba bd 2a d9 5f bd
       0.2340664 -0.071432464 -0.09112987 -0.054650463
0001d0 3f 65 01 3e 78 45 35 3e b2 a7 c4 bd 5f fd 89 3b
       0.12636279 0.17702281 -0.09602298 0.0042111124
0001e0 1a ad b0 3d 57 63 09 3e 6a a8 81 bd eb cf 3d bc
       0.086267665 0.13416801 -0.063309506 -0.011585216
0001f0 90 8f 3c bd 56 18 c2 3d 80 a2 b8 bb b3 2c a9 3c
       -0.04603535 0.09477298 -0.005634606 0.020651197
000200 9c c3 84 bd 42 d8 ec bd 12 e7 11 bd d5 33 a0 bd
       -0.06482622 -0.115646854 -0.035620756 -0.07822386
000210 d3 b3 05 3e c2 cc a7 3d 8a db da bd 01 14 bf bd
       0.13056879 0.08193351 -0.10686405 -0.09329987
000220 26 74 c4 3c 61 f3 73 3e d3 4c d5 3d 59 27 47 be
       0.023981165 0.2382331 0.10415044 -0.19448604
000230 d7 a4 37 3d fb c3 c9 3c fc 9e 27 3e 97 83 89 bd
       0.044834938 0.024629584 0.16369241 -0.06714552
000240 64 43 31 3d 9e b1 e9 bc 4e 2c 1f 3b a5 45 4a 3d
       0.04327716 -0.028527077 0.0024287882 0.049382824
000250 f4 3e 14 3d 4a 85 82 3c 37 05 a0 bc 04 9a a3 3d
       0.03619285 0.015932698 -0.019533737 0.079883605
000260 f2 ee b3 3c 1e 64 d2 bd ec 5c e7 bc e5 18 15 bd
       0.021964524 -0.10273002 -0.02824255 -0.036400694
000270 f1 05 10 3e cb 65 00 3e 8d cc c3 3b da 1a ac bc
       0.14064766 0.12538831 0.005975312 -0.021008898
000280 3d 7f 7f bb 86 3d d3 3d 17 b4 28 3e d5 1a c6 3d
       -0.0038985752 0.10314469 0.16474949 0.096730866
000290 fa 6f bf 3d c2 1d 06 bd 0a 9c 80 3d df 3c 4d bd
       0.0934753 -0.032743223 0.06279762 -0.05010688
0002a0 f8 dd 06 bd 35 b7 0e 3d 05 7f 5d bd b5 a9 9a bd
       -0.03292653 0.03484269 -0.054076213 -0.075519
0002b0 b1 06 2a b6 d4 ae 7c bd fc b5 97 bd 9a 27 72 3c
       -2.533587e-06 -0.061690167 -0.07407758 0.01477995
0002c0 3d 4e 98 3c 6b f4 64 3d 05 48 11 3d 01 1a d0 3c
       0.018591994 0.055897158 0.035469074 0.025403025
0002d0 61 a6 e4 3c 90 eb 23 bd 9c 34 86 3d f0 4d 6e 3d
       0.027911367 -0.04001957 0.06553003 0.058179796
0002e0 c4 0a 60 bd 60 54 8e bc e8 91 d1 3c ed 3e 85 3d
       -0.054697767 -0.017374218 0.025582269 0.06506143
0002f0 5c 97 43 3d de 9e b4 3c fd 53 88 3d c1 93 d2 bc
       0.04775177 0.02204841 0.066566445 -0.02570522
000300 1a de 24 3c 6b 72 8d bc d7 b0 9b 3d 33 f6 64 3d
       0.010062719 -0.017266473 0.07602089 0.055898856
000310 93 79 57 3d 07 ce a7 3d dc b0 b7 3b ea b9 7b bd
       0.052606177 0.081935935 0.0056058 -0.0614566
000320 cf 92 22 bd 94 82 9f 3d 16 cc b4 3c 13 9c ae bc
       -0.03969079 0.07788578 0.022069972 -0.021314656
000330 f5 cd d5 3c b8 78 03 3d f2 e4 fc bc c6 be 69 3c
       0.026099185 0.03209755 -0.030870888 0.014266675
000340 77 67 94 3d 9c 2b ec bc 81 8c 09 3d 84 10 13 3e
       0.07246297 -0.028829388 0.03358126 0.14361769
000350 e1 e9 ee 3c 58 30 78 3d de 6f 33 3c 49 ba a9 3d
       0.029164257 0.06059298 0.010951964 0.08287484
000360 b9 01 00 3e 95 dc 79 3d 07 52 da 3d b7 0e 66 3d
       0.12500657 0.06100138 0.10660177 0.056166377
000370 27 3b 24 bd b2 7f 32 bd 08 7f c6 3d e8 f7 d3 3d
       -0.040095475 -0.04357881 0.09692198 0.10350019
000380 b8 b9 7d 3c 62 77 03 3d 8b e9 e3 3d ff 4c 73 3d
       0.015486173 0.032096274 0.11128529 0.0593996
000390 4c 4e b5 3c ee 57 f5 bc 79 fc 9f 3d e7 08 32 3b
       0.022132061 -0.029949155 0.07811827 0.002716595
0003a0 a0 d4 82 3d e4 a6 59 bd 77 ce ed bc d6 47 97 bd
       0.06388211 -0.053137675 -0.029029114 -0.073867485
0003b0 38 c8 0a 3d 52 a5 0f bc 7b 9e f3 3c 37 d1 62 3d
       0.03388235 -0.008767443 0.029738655 0.055375304
0003c0 95 92 98 bd cd ba 1b bd af ff 84 bd b1 52 a4 3d
       -0.07449833 -0.038019944 -0.0649408 0.08023585
0003d0 e2 49 37 3d 01 e1 00 3d 0b 09 9d bd 97 07 8f 3a
       0.044748195 0.03146458 -0.076677404 0.0010912296
0003e0 37 17 6a bd 17 7c a8 3d 2b 7c bc 3d ff 8a 9d 3c
       -0.057151046 0.08226793 0.09203371 0.019231318
0003f0 47 83 28 be 6b 2a a9 bc 1a b5 97 3d 30 85 2b 3e
       -0.16456328 -0.02065011 0.07407589 0.16750026

conv.3.bias f4 [16]
000000 d5 b9 93 bd e7 2b b0 bd 2b 5a d0 bc 5d 19 cc 3d
       -0.07213179 -0.08602124 -0.02543362 0.09965775
000010 17 ff 87 3c 03 d8 9b bd 1b 47 55 3d da 28 7d bc
       0.016601129 -0.0760956 0.052069765 -0.015451634
000020 36 3c 48 bd 7c 9d 8e bd 70 4a 0a 3c 2d 06 a8 3c
       -0.048885547 -0.069636315 0.008440599 0.020510757
000030 be 92 9a 3d 09 1c 2c 3d ca 8d 66 bd 6c 97 14 bd
       0.0754752 0.042018924 -0.056287564 -0.03627722

fc.0.weight f4 [120, 400]
000000 ca b3 37 bd 3d aa 49 3d 12 8d 00 3c 23 d1 00 3c
       -0.044849195 0.049234618 0.007846134 0.007862362
000010 7b 49 ee 3c 9b a8 bd bc 16 1a 12 bd d0 ea f8 3b
       0.029087773 -0.023151686 -0.03566941 0.007596351
000020 2e 85 a1 3c bb 2b cd bc f5 d5 2c bd 2f a1 03 bd
       0.019716825 -0.025045266 -0.042196233 -0.03213614
000030 18 30 51 3c 5f b8 46 bd e4 58 cd bc 55 0a 9a b8
       0.012767814 -0.048515674 -0.0250668 -7.345217e-05
000040 6a 43 02 bd dc 6c 54 3d 60 4e a8 bc 32 38 50 3c
       -0.031802572 0.05186163 -0.020545185 0.0127087105
000050 1a 3b b2 bc 0f e0 19 3d 19 94 4c 3d 80 4b cb bc
       -0.021756697 0.037567195 0.049945924 -0.024816275
000060 16 4f 0c bb 05 52 c8 3a ec 1f 35 3d 70 e1 9c bc
       -0.0021409444 0.0015283233 0.044219896 -0.019150466
000070 0b f7 63 bd 73 77 37 bd ce f2 38 3b a7 b5 e2 3b
       -0.05565552 -0.04479165 0.0028220895 0.0069186273
000080 88 ff ea 3b 57 3c 2d bd 8a 5f 92 bd 4b c8 f7 bc
       0.007171575 -0.042293873 -0.07147129 -0.030246874
000090 22 d9 83 bd a6 26 b2 3b ff cb 3d bd f4 98 f9 3c
       -0.06437899 0.005436736 -0.046337124 0.030468442
0000a0 8e 60 5e 39 10 c5 c7 bc 91 8b ae bd 6d 13 a3 bc
       0.00021207539 -0.024385959 -0.08522714 -0.019906724
0000b0 39 d1 0d bd a6 56 20 bd 33 36 e5 bc 6f b8 27 3c
       -0.03462336 -0.039145134 -0.027979946 0.0102368435
0000c0 0b e1 65 3d dc 7a 63 bc 7d d6 1e bd 47 78 d3 3c
       0.05612282 -0.013884272 -0.03877877 0.025814189
0000d0 19 69 e3 3c c0 7a 72 3c 2d 7d a6 bc 22 1e 57 3b
       0.027760075 0.014799774 -0.02032336 0.0032824357
0000e0 1c af ef 3c 43 7b 3e bc 72 6a 3d bd 15 27 db bb
       0.029258303 -0.011626068 -0.046244092 -0.0066880086
0000f0 e7 89 2b bd 8b 75 fa 3b ff 3a fc 3b 24 44 e8 bc
       -0.04187956 0.0076434067 0.0076974626 -0.028352804
000100 d8 b6 9c 3c 98 40 34 3d 18 b5 8d bc 2c 2f 84 3c
       0.019130155 0.044006914 -0.017298266 0.016135775
000110 1f d7 82 3d b4 ae d2 bc 14 a2 72 bc a2 cb cb bc
       0.06388687 -0.02571807 -0.01480915 -0.024877373
000120 23 19 2e bd 1c 78 09 3c 38 df e7 3a 22 bd f6 bc
       -0.04250444 0.008390453 0.0017690426 -0.030119482
000130 1c e1 59 3c e8 cf 7a 3c b3 99 64 bb ae 4b 27 bd
       0.013298299 0.015308358 -0.003488165 -0.04084366
000140 b4 44 31 3d 2c ab 1b bd a8 c9 be 3c c8 31 33 bd
       0.04327841 -0.03800504 0.023289517 -0.043748647
000150 22 f7 08 3d 31 97 0f 3d 9e 4c 2b bd 3d 81 d0 bc
       0.03343881 0.035056297 -0.041821115 -0.02545225
000160 df b8 18 bb be 9d 87 bd 5f 73 07 bd 9a 5f 25 bc
       -0.002330355 -0.06621884 -0.03306901 -0.010093594
000170 0f 99 fd bc a4 10 ea bc 90 9b 11 3d 6a 17 3c bd
       -0.030956773 -0.028572388 0.035548747 -0.045920767
000180 80 86 89 bb 1a 3b 9e 3c 87 0e 67 3a c3 df e9 bc
       -0.004196942 0.019315291 0.00088141154 -0.02854908
000190 7c 1a 89 bc ec 7a 34 bd 45 59 6e 3d 29 dd 00 3b
       -0.016736262 -0.04406254 0.058190603 0.0019663072
0001a0 4a 55 d9 3c c4 61 77 3c 8a 50 f3 bc e9 bc 8a 3d
       0.026529927 0.015098993 -0.02970149 0.06774313
0001b0 25 87 c8 3c 30 03 82 3d 1a 97 3c 3c 12 65 1a bd
       0.024478504 0.06348264 0.011510635 -0.037694044
0001c0 b3 0f d2 3c af 58 d3 3a 41 99 a3 3b f2 b8 99 bc
       0.025642252 0.0016124452 0.0049926345 -0.018764947
0001d0 a2 66 a0 3c a7 48 be 3c 6c e7 c2 bb 72 6c 46 bd
       0.01958019 0.023228003 -0.005947998 -0.048443265
0001e0 96 41 7e bc b4 8a a4 3c 1e 05 02 3d d9 8f 0c bd
       -0.015518567 0.02008567 0.03174316 -0.03431687
0001f0 50 33 ca bc 49 03 ba 3b 17 8b 87 bd f3 c6 7a bc
       -0.02468267 0.005676661 -0.06618326 -0.015306222
000200 4d 98 a6 bd fa 1d 83 bd 27 fe 04 bc 95 d0 c8 bc
       -0.08134518 -0.06402202 -0.008117235 -0.024513522
000210 15 14 1b 3d 48 64 94 bd 58 a1 49 3d 3a b3 90 bc
       0.03786095 -0.0724569 0.049226135 -0.017663587
000220 c7 17 07 bc c6 b4 24 bd fd 20 7e 3d a5 63 0a 3d
       -0.008245415 -0.04021146 0.06204318 0.033786435
000230 02 47 2e 3d 62 28 a1 bd 0c fe d4 bb d6 1e 29 3c
       0.042548187 -0.078690305 -0.0065000113 0.010322293
000240 c6 32 cb bc c0 e7 6a 3c 21 94 65 bd 20 56 c8 3c
       -0.024804484 0.01433748 -0.05604947 0.02445513
000250 94 d2 4d bd e2 bc 65 3d ea 22 1e bd 3f 43 ff bc
       -0.05024965 0.056088336 -0.038607515 -0.031159995
000260 3d d1 92 3d 7b 5b 01 3d df cb 02 bb d9 ba eb 3c
       0.07168815 0.031581383 -0.0019957942 0.02877562
000270 6d 78 e8 3c 08 87 d3 3c e9 5a 1c bc 26 5b e1 3b
       0.028377736 0.025821224 -0.009543159 0.006877321
000280 80 ff f6 bc 60 d2 d2 bc 02 9e 0e 3d b5 a0 41 3d
       -0.030151129 -0.02573508 0.034818657 0.047272403
000290 c0 af 53 bd de 87 bc bc 49 af ac bb 27 ea e0 3c
       -0.05168128 -0.023014005 -0.005269919 0.027455403
0002a0 46 e0 2d bc 4a 5f 3d 3c b1 a9 48 3d 76 ae dd bc
       -0.010612553 0.011558363 0.048989955 -0.027060729
0002b0 78 04 1a 3c 56 4a 72 3d 3f b5 3f 3d 57 cc 45 bd
       0.0094004795 0.059152924 0.04680371 -0.048290577
0002c0 f9 87 82 3c b8 f6 08 bd 1f 87 55 bd 11 90 1a bb
       0.015933977 -0.033438414 -0.052130815 -0.0023584405
0002d0 ed e5 b5 bb 01 99 65 3c e2 e1 44 bd 2e 51 7a 3b
       -0.005551091 0.01401353 -0.04806698 0.003819536
0002e0 bd 5e d5 bc 08 ae 83 3d 80 eb 82 3d ff f6 74 3c
       -0.026046151 0.06429678 0.06392574 0.014951467
0002f0 e7 c6 3c 3c e2 f7 2a 3d 01 f3 1c bc ed cc b3 39
       0.011522031 0.041740306 -0.009579421 0.00034294222
000300 24 2b 02 3d 8f 63 0c bd f3 08 8c bc 87 44 d1 bb
       0.031779423 -0.034274634 -0.017094111 -0.006386343
000310 30 25 21 bd ad 90 0f bc 40 e1 84 3c f9 85 84 3c
       -0.039342105 -0.008762521 0.016220689 0.016177164
000320 07 9a 8f 3b ac fc b9 3c 8f d9 ff bc c2 ad 19 3d
       0.004382375 0.022703491 -0.03123167 0.037519224
000330 ad 9d 11 bc e3 0c 51 3d d0 dd 0a bc a5 1f 34 3d
       -0.0088876905 0.05103768 -0.008475736 0.04397549
000340 bb e6 f7 3c c4 c4 b6 3c e9 25 01 bb 08 8a bc bc
       0.030261388 0.022310622 -0.0019706434 -0.023015037
000350 f7 53 af 3c f7 5f 07 bd 2c f0 a2 3c c0 f7 71 bc
       0.021402342 -0.033050504 0.019889913 -0.014768541
000360 69 e6 59 bd 29 84 1b 3d 48 15 50 3d ed 6a 09 3d
       -0.053198252 0.037967835 0.050801545 0.033549238
000370 26 46 ea 3b a2 14 9f bc e9 4c 08 3d d1 a1 8d 3c
       0.0071494756 -0.019419018 0.033276472 0.017289074
000380 c6 d1 01 bc fd 69 25 3c ac 31 e2 ba c4 67 f4 ba
       -0.007923549 0.01009607 -0.0017257235 -0.0018646647
000390 51 30 2b 3c 7b f8 1a bd d7 e2 2b bd de 6d 56 3d
       0.010448531 -0.037834626 -0.04196438 0.05235087
0003a0 23 df be 3c d4 3f 20 3d 41 cf 2c bd b2 0a 9f 3a
       0.02329976 0.03912337 -0.04218984 0.0012133925
0003b0 9a e6 02 3d 10 d4 04 bd 58 3e 81 3c 8c 40 db bb
       0.0319582 -0.0324288 0.015776798 -0.006691044
0003c0 28 96 4a 39 e7 f2 7e 3c cb e5 6e bc a9 e9 d7 bc
       0.00019320159 0.015560842 -0.014581154 -0.026356535
0003d0 ab 9e 0e 3d 15 ef f6 3c fb c3 c2 bc 07 a5 2b bd
       0.034819286 0.0301433 -0.023775091 -0.04190543
0003e0 ba 1f 04 3d cc 88 c5 bc 33 a5 5a bc 03 64 12 bb
       0.03225682 -0.024113081 -0.013345051 -0.0022337444
0003f0 ad ef 29 bd 00 68 d4 bb ad 7d 29 bd 04 85 12 bd
       -0.04148834 -0.0064821243 -0.04137962 -0.035771385

fc.0.bias f4 [120]
000000 4a 8f d2 bc f3 47 e6 3c ac ee 2a 3c a1 b0 b3 bb
       -0.025703091 0.02811048 0.01043288 -0.0054837023
000010 ea de ff 3c f0 50 e2 3c 79 b2 2d bc 5d 3a b4 ba
       0.031234223 0.027626485 -0.010601633 -0.0013750304
000020 03 30 e1 bc 12 eb 9b 3c ee 49 8f 3c 51 a4 39 bc
       -0.027488714 0.019032989 0.017491307 -0.01133068
000030 60 3e f0 bc d5 03 09 bd 1f 1e f3 3c 60 98 05 bc
       -0.029326618 -0.03345092 0.029677449 -0.008154005
000040 26 c6 47 3d f4 81 22 3d a9 51 62 bd a9 1b 3e bd
       0.048772953 0.039674714 -0.05525366 -0.046413098
000050 76 e0 1e bd 94 a3 31 bc b0 b2 fb bc a5 e0 34 3d
       -0.03878828 -0.010842223 -0.030724853 0.04415955
000060 3c d9 40 3d 95 03 e3 bc e7 aa 93 3c ee 24 30 3b
       0.04708217 -0.027711669 0.018025829 0.002687748
000070 c8 e3 73 3c bb 50 f6 3c b2 01 eb 3c 8d fc 10 bd
       0.01488585 0.030067792 0.028687332 -0.0353971
000080 b3 46 46 bd 70 df 1e 3d df f5 15 bd af b8 39 3d
       -0.048407268 0.038787305 -0.036611434 0.045342144
000090 ef f4 9d 3c ba 31 46 3d c4 43 85 3c 37 63 a0 bc
       0.019281833 0.048387267 0.016267665 -0.01957856
0000a0 2d f1 19 3c 0e 7c 65 bc 53 f2 40 3d 76 0a cf bc
       0.00939588 -0.014006628 0.0471061 -0.025273543
0000b0 b3 fa 5d 3d 3e 4d 23 3d e8 bc 13 bd cd a7 30 3d
       0.054194164 0.039868586 -0.036068827 0.043128777
0000c0 6d 01 01 bc d8 74 37 bb ef 77 44 bd 19 32 4c 3d
       -0.007873875 -0.0027993228 -0.04796594 0.049852464
0000d0 bb 41 de 3c 75 99 09 bd b6 89 bb bc 54 dd 10 bd
       0.027130952 -0.033593614 -0.022892814 -0.035367325
0000e0 ca 51 2c bd 97 27 cc bc 54 23 09 3d 1d bf 74 3a
       -0.042070188 -0.024921222 0.033480957 0.00093363394
0000f0 33 82 3b 3d 48 31 4d bc da b6 5d ba 1c df 00 3c
       0.045778465 -0.012523957 -0.0008457728 0.007865693
000100 e0 84 12 bd 40 7c 31 3d 72 84 9b 3c d0 42 87 bc
       -0.03577125 0.043331385 0.018984053 -0.01651135
000110 4d 5e c1 3b da ed bf bc 4e 99 1c bd d3 af 18 3c
       0.005901134 -0.023428846 -0.03823214 0.0093192635
000120 92 6c a5 bc b9 5b 24 bc 3c de ba 3c 6c 31 36 bd
       -0.020193372 -0.010031634 0.022811048 -0.044480726
000130 30 9e 03 3c 76 c0 98 3c 42 3c 55 3c 9e 38 e7 3c
       0.00803332 0.01864646 0.013014855 0.02822524
000140 9e 87 27 3d 38 bc 1b 3d 24 15 3b bd 70 26 d2 3b
       0.04090082 0.038021296 -0.04567446 0.0064132735
000150 2e e5 7a 3d 2e 81 06 3d e0 bc 0c bd a5 c4 3b 3b
       0.06125372 0.03283804 -0.034359813 0.0028651145
000160 9e 38 d7 3b 78 e7 3a 3d 1b bf 02 bd 4e 27 10 bd
       0.0065680286 0.045630902 -0.031920534 -0.035193734
000170 3c 3b 1a bd a7 b8 95 bc 9a d6 91 bc c7 ac 3f bb
       -0.037654147 -0.018276526 -0.017802525 -0.002924727
000180 bf d8 a6 3c 30 98 88 3c d9 1e 0b 3d 31 93 14 bd
       0.020367024 0.016674131 0.033964965 -0.036273185
000190 a2 5f dc bc d4 81 ac bc 51 a2 d9 3c 78 c0 44 3a
       -0.02690107 -0.021058 0.026566656 0.0007505487
0001a0 07 c5 53 3d 6e 29 96 bc e3 e1 4c bd 5e fe 42 3d
       0.05170157 -0.018330302 -0.05002011 0.047605865
0001b0 da 79 ca 3b bd 7f 0f bd 26 20 95 bc c9 f5 20 3c
       0.0061790766 -0.03503393 -0.018203806 0.009824225
0001c0 41 00 b3 bc 25 2c 40 3d 6c 32 ad bc 6e 66 03 bd
       -0.021850707 0.0469171 -0.021142207 -0.032080106
0001d0 c6 94 33 3d ed 98 36 3d b1 cd eb bc f5 38 8b bc
       0.043843053 0.044579435 -0.028784605 -0.016994933

fc.1.weight f4 [84, 120]
000000 c6 7e 92 bd 05 72 b1 bd ba 6f 17 3d b9 e9 64 bd
       -0.07153086 -0.086643256 0.036971785 -0.055886958
000010 27 39 9d bd 05 37 90 bd 28 f9 c6 3d ca 39 8d bd
       -0.076769166 -0.07041744 0.097154915 -0.06895788
000020 75 62 ef 3c 46 ff 4b bd 1f e8 3a bd e1 b8 3b bd
       0.029221753 -0.049803995 -0.045631524 -0.04583061
000030 e0 21 b5 bd 8c b9 1f 3d 6e 20 1a 3d eb ed ba bd
       -0.08844352 0.03899531 0.037628584 -0.091274105
000040 e9 9f af bd 18 c9 a9 3d 2f b1 93 bc a2 f0 54 bb
       -0.08575422 0.08290309 -0.018028824 -0.003249206
000050 28 c4 16 3c f9 b7 19 3d 99 99 19 3d 04 be 63 bd
       0.009202041 0.037528966 0.037499998 -0.055601135
000060 dd 2e 88 bd a3 be 9b bd b1 3f 16 3d b4 47 55 3d
       -0.066495635 -0.076047204 0.036681835 0.052070335
000070 23 db 5a 3c 85 1b 2b bd 2b e0 a4 3c c0 9c 0d 3d
       0.01335791 -0.04177429 0.020126423 0.034573317
000080 12 66 f2 3d fc b2 e7 bd 3b 93 af bd b5 4c 01 bd
       0.118358746 -0.113134354 -0.08573004 -0.031567294
000090 0d 17 31 3d 12 91 28 3d a3 3f 45 bd 8c 39 69 3d
       0.043234874 0.041153975 -0.04815639 0.056939647
0000a0 cc 88 cb 3d 97 23 c1 bd 08 f3 ac bd a0 62 81 3c
       0.09938201 -0.09430616 -0.08444792 0.015794098
0000b0 45 e9 8f bd 2d 76 c9 3c 98 b5 83 bd 92 7b be 3c
       -0.070269145 0.024592483 -0.06431121 0.023252282
0000c0 65 b4 b5 3d d4 dd cc bb 20 de c1 3d d8 a9 69 3c
       0.08872298 -0.00625203 0.09466195 0.014261685
0000d0 a5 08 91 bd d0 3f 8f 3d 9b 05 64 bd 15 b2 84 3d
       -0.07081727 0.06994593 -0.05566941 0.06479279
0000e0 2d a3 12 3c e8 2f ca 3c 72 b9 bd bc c6 4f f6 3b
       0.008950037 0.024681047 -0.023159716 0.007516834
0000f0 60 1c 1a bb 71 b0 d1 bd 30 c2 89 bd c2 d1 e2 3c
       -0.0023515448 -0.10238732 -0.067264915 0.027687911
000100 a7 13 8f bd c8 47 11 3c 8d f4 18 3d 3c 5c 34 3d
       -0.0698617 0.008867212 0.037342597 0.044033274
000110 a4 cb 1e 3d 5a fd 97 3d 63 56 76 bc 6a 72 bf bd
       0.038768426 0.0742137 -0.015035245 -0.093479946
000120 97 99 dd 3d 59 9b 74 3c f1 5a 10 bc 92 e7 14 bd
       0.108203106 0.014929616 -0.008810745 -0.036353655
000130 62 6d 94 bd d7 b3 b3 3d 5b 2f 5e bd 60 f1 76 bd
       -0.072474256 0.08774536 -0.05424438 -0.060288787
000140 71 d8 ce bc 03 ee 6c 3d 39 46 c1 bb d3 45 ba bd
       -0.025249692 0.057844173 -0.005898264 -0.09095349
000150 da 63 a8 bd 6e 03 bf 3d 27 1c 98 bd 60 ff 9d bd
       -0.0822217 0.09326826 -0.07427245 -0.077147245
000160 12 37 cb bd 26 e5 22 3d fb 14 a6 3d 4d f5 27 3d
       -0.09922613 0.039769314 0.081094705 0.04100542
000170 c4 22 88 bd 71 32 63 bd d4 64 8d 3d df 04 c2 3d
       -0.06647256 -0.055468027 0.06903997 0.09473585
000180 fe ec 91 3c 80 16 ed 3c 6c 69 37 bd 73 ca 06 bc
       0.017813202 0.028941393 -0.044778273 -0.008226979
000190 ac 49 76 3d 57 3d f2 3c 6e dd 9a 3d ad e6 f5 3c
       0.060128853 0.029570265 0.075617656 0.030017221
0001a0 91 d2 31 bd 73 dc d5 bc 89 86 93 3d 34 9e 3b bd
       -0.043413702 -0.026106095 0.07203395 -0.04580517
0001b0 64 14 89 3d 39 28 99 3d e7 86 46 3d 88 88 3f 3c
       0.06693342 0.07478375 0.048468497 0.011690266
0001c0 1a 4c 4b bd 06 9d 82 bb 5b 5b a5 bd a2 0d c1 bd
       -0.049633123 -0.003986004 -0.08074065 -0.094264284
0001d0 c6 07 15 3d 90 eb 1f bd 88 5a 91 bc 43 ef ea bb
       0.036384366 -0.03904301 -0.017743364 -0.0071696355
0001e0 aa 83 fc 3c c3 55 9f bc 65 8c a1 3d 8d 29 c2 3d
       0.030824501 -0.019450074 0.07888106 0.094805814
0001f0 93 30 06 3d 68 37 a6 bd 28 6c 8a 3a 9d 83 31 bd
       0.032761168 -0.08116037 0.0010560798 -0.043338407
000200 06 7c 6a 3c 3b 31 6a 3d b4 9c 98 bd 76 64 9a bd
       0.014311796 0.057175856 -0.07451764 -0.07538693
000210 07 06 e7 3c 82 68 00 bc 49 57 47 3b 7e d4 94 3c
       0.028201116 -0.007837417 0.0030417016 0.01816773
000220 1d 72 d7 bd 31 c3 01 3e 76 ac da 3d ab be 3f 3d
       -0.10519812 0.12672116 0.106774256 0.046812695
000230 43 f1 0f 3d fa 02 f7 bc 00 d6 e8 3c 1b b3 8c bd
       0.035142194 -0.030152787 0.028422356 -0.06870099
000240 f5 76 ab bd f0 fa b8 bd 3e 25 c6 bc 45 77 83 3d
       -0.08372299 -0.090322375 -0.02418768 0.06419233
000250 15 ad 46 bd d4 75 a2 3d 2b bf e2 bd 5e a4 c8 bc
       -0.048504908 0.0793263 -0.11071619 -0.024492439
000260 98 a9 23 3d 1b a7 57 bd ef 3b d2 bc ac 86 c6 3d
       0.03995666 -0.0526496 -0.025663344 0.09693655
000270 5e 7e 80 3d 3b dc 36 3d 62 44 41 bd 0e 08 a3 bc
       0.06274103 0.044643622 -0.047184356 -0.019901302
000280 bd 9a 8b bd 6b 1d 8d bd 17 30 d0 ba 17 d7 2c bd
       -0.06816623 -0.06890377 -0.0015883473 -0.042197313
000290 17 64 91 bd 82 96 c7 bd c2 b5 1d 3d 81 ed ea 3d
       -0.07099169 -0.09745504 0.038503416 0.114710815
0002a0 e5 87 0a bd cc 16 a4 3d 48 7c cf ba 4f 65 b9 bd
       -0.033821005 0.08012161 -0.0015829885 -0.09052526
0002b0 7a 3b da bd 91 6a 8b bd 5f 8a a1 bd fc fe 42 3d
       -0.106558755 -0.06807435 -0.0788772 0.047606453
0002c0 76 7b c3 3d f0 51 8e 3d 13 c3 c1 38 7f ab 82 3d
       0.09545033 0.06949222 9.2392926e-05 0.063803665
0002d0 07 c8 8b bd 7b bc d8 3c e9 26 3f 3d 3c bf 37 bc
       -0.068252616 0.026457062 0.046667967 -0.011215027
0002e0 27 4f 83 bd 26 86 d6 bd cd 3c 76 bc 6f a3 dc bd
       -0.064115815 -0.104748055 -0.0150291445 -0.1077336
0002f0 09 69 da bc c2 3f 7a bb f1 6c 78 3c 76 b3 0d 3d
       -0.026661413 -0.0038184975 0.015162692 0.034594975
000300 1c 04 f6 3d 98 34 dc 3d 01 55 81 bd 62 34 a1 bc
       0.120125026 0.10752219 -0.06315041 -0.019678298
000310 fb b2 04 3d a3 70 32 3d 5d 27 ab bd ba 14 05 3c
       0.03239725 0.04356445 -0.08357117 0.008122617
000320 26 e6 d9 3d a9 cc 4f 3d e4 36 0c 3c d3 3d b6 3d
       0.106396005 0.05073229 0.008558009 0.08898511
000330 2f 27 ff 3c a0 2b e5 3d af 7c 59 bd 8c b9 50 3d
       0.031146614 0.111899614 -0.053097423 0.0509582
000340 1b 5c 95 bb 56 98 84 3d 13 ec 4f 3d 68 e5 a2 bd
       -0.004558099 0.06474368 0.050762247 -0.07953912
000350 d5 1f 4f bd ae bd 1a bd ca dd d1 3d 39 63 89 3c
       -0.050567467 -0.03777855 0.10247381 0.016770946
000360 15 63 97 3d 2c 00 a7 bd ce d6 a0 bd 57 60 bb 3d
       0.07391945 -0.0815433 -0.07853471 0.09149235
000370 39 64 b0 bd 89 4a c9 3d d3 f3 19 3d 9b c7 82 3d
       -0.08612866 0.098286696 0.037586045 0.06385728
000380 25 43 6a bd f6 00 92 bd 37 1e 5f bd 80 6a 2a bd
       -0.05719294 -0.071290895 -0.054472174 -0.041605473
000390 eb 36 5f bd ae 72 2d bc 8a 72 52 bd 74 2e ce bd
       -0.054495733 -0.010586424 -0.051378764 -0.10067454
0003a0 52 5c ac 3d 8b 4f 0e ba 39 16 33 bd f5 4b 86 3d
       0.08416046 -0.0005428723 -0.043722365 0.065574564
0003b0 2a f3 0f bd 30 3b c1 3c 1d 71 9d bc f7 09 96 3d
       -0.03514401 0.023587793 -0.019218976 0.073261194
0003c0 b3 f5 8a bc 4a 3b 32 bd 6d 50 18 3b ec 66 42 bd
       -0.016962862 -0.043513574 0.0023241297 -0.047461435
0003d0 98 bc d0 3d 31 5a 5f 3d 9d c6 8f 3d 75 71 09 3d
       0.101922214 0.054529373 0.07020304 0.033555467
0003e0 0a 60 20 3d 5d 16 73 bd e6 23 86 bb 57 52 a6 bd
       0.03915409 -0.0593475 -0.004093635 -0.08121174
0003f0 da 44 7d bc ee 2a 92 3d 98 15 69 bd b6 79 92 3d
       -0.01545831 0.071370944 -0.05690536 0.07152121

fc.1.bias f4 [84]
000000 ea 5d 57 3d 20 de 4e bd a4 45 07 bd 67 8f 13 bd
       0.052579798 -0.050504804 -0.0330254 -0.03602543
000010 38 49 72 bd 71 4e 0f bd a5 73 0e bd 2a 23 89 bd
       -0.059151858 -0.034986917 -0.034778256 -0.0669616
000020 32 79 c7 3d eb 51 65 3b 3e d0 18 3b 9f 38 a1 3d
       0.09739913 0.0034991454 0.0023317481 0.07872128
000030 e2 12 fa 3c b2 1a 3f bd f0 e5 aa bd 92 6f 26 3d
       0.030526582 -0.046656318 -0.08344638 0.040633745
000040 64 98 64 bd 7e d5 97 3d 13 92 27 3d 6e 31 19 3d
       -0.055809394 0.07413767 0.04091079 0.037400655
000050 0a aa 2b 3d b9 3d d4 3c 5d 77 b1 3d a9 fe d3 3c
       0.04191021 0.025908338 0.08665345 0.025878267
000060 97 08 8d bc c2 c7 97 3d 4e 3b 70 3d da 1e 6f 3d
       -0.01721601 0.07411148 0.058650307 0.05837903
000070 9a b4 a9 bd c9 40 da bc f9 11 cc 3d 2a 1f 30 3d
       -0.082864 -0.02664222 0.099643655 0.04299847
000080 b4 a1 ee 3c b1 54 53 bc 0a e7 56 3d bb b5 6d bc
       0.02912984 -0.01289861 0.05246643 -0.01450866
000090 25 76 14 3b 13 00 ef 3c 27 d4 10 bc 65 29 36 3d
       0.0022653427 0.02917484 -0.008839644 0.04447307
0000a0 67 53 8b bd 87 1e 73 bd 04 02 ad 3c b6 f2 f4 39
       -0.06803017 -0.059355285 0.021119125 0.0004672014
0000b0 c8 33 87 bc c4 64 47 3d d7 66 e4 3c dd 57 7e bd
       -0.016504183 0.048680082 0.02788107 -0.06209551
0000c0 48 79 1d bd f5 f8 57 bd 47 73 85 bc e0 c8 5f 3c
       -0.03844574 -0.05272766 -0.01629032 0.013658732
0000d0 76 d9 a4 3c eb 36 3a ba 4e f2 b6 3d 33 bf 32 bc
       0.020123225 -0.00071035203 0.08932935 -0.010909843
0000e0 7e 74 62 bc 6f 75 3e 3d be ce 20 bd 70 2f ea ba
       -0.013821719 0.046498712 -0.039259665 -0.0017866921
0000f0 5b 93 94 3d 1d a7 18 3d d0 42 7c bd 1b 8f 21 bc
       0.07254668 0.037268747 -0.061587155 -0.009860779
000100 c0 15 5b 3d 7a 4a 80 bb 1e 8a 14 3d c0 fa d4 3b
       0.05348754 -0.0039151283 0.03626453 0.0064996183
000110 e5 6a 31 3c 82 84 21 bd aa c8 a4 3c 50 a0 74 bd
       0.010828708 -0.03943301 0.020115215 -0.0597232
000120 c6 4d 53 bb ed 45 88 3b 62 71 90 bd 33 f4 a6 3d
       -0.0032242402 0.0041587264 -0.07052876 0.08152046
000130 7a 9a 46 3c d9 3a 51 bd 91 1b 6e bd 3d 67 e7 bc
       0.012121791 -0.051081512 -0.058131758 -0.02824747
000140 28 61 9d bd 85 3a 61 bc 02 68 d0 bc ea 08 aa 3d
       -0.07684547 -0.013746862 -0.02544022 0.083024815

fc.2.weight f4 [10, 84]
000000 95 17 00 3e 5e 8a a7 bc e3 ac 32 3e 71 3f ce bd
       0.12508996 -0.02045172 0.17448764 -0.10070694
000010 2b 89 c8 3b dc 37 2f 3c d2 c4 9c 3d 40 35 34 3c
       0.0061198673 0.01069447 0.07654728 0.010999024
000020 37 26 1d be 8a 5c 51 bc dc d0 dc bd 58 1e 2c be
       -0.15346609 -0.012778411 -0.10782024 -0.1680845
000030 63 72 62 be a4 d3 a7 bd bd 40 55 bd 0d 7b 3d bd
       -0.22113948 -0.08194664 -0.052063692 -0.04625993
000040 38 df 7a 3c bf d7 34 be 15 40 13 be 95 1a f3 bd
       0.015312009 -0.17660426 -0.14379914 -0.118703045
000050 c6 06 01 be ff 3f 20 be 4d c3 84 bd c7 e4 ac bd
       -0.1260024 -0.15649413 -0.06482563 -0.08442073
000060 be 0c 7e 3d d5 9e 99 3d 6a 91 ad 3d 0c b4 62 bc
       0.06202387 0.07500998 0.08475001 -0.013836872
000070 68 28 8f 3d bb 00 6f bd 48 c0 b0 3c 2c 1f 82 bd
       0.06990129 -0.058350306 0.021576062 -0.06353602
000080 d4 4d 7c 3d 35 fe 26 bd cd 57 bc 3d 18 08 ab 3d
       0.06159766 -0.040769774 0.09196434 0.08351153
000090 45 91 fd 3d f6 f2 71 3d 5d 56 b0 bd f1 ce 77 bd
       0.123812236 0.059069596 -0.086102225 -0.06050009
0000a0 5b 85 8d 3d a7 a7 33 3c 62 4e 17 be 04 a7 0f 3e
       0.06910201 0.010965264 -0.14775994 0.14028555
0000b0 c0 1c 7c bd 5e 14 43 3e fb 09 10 3e cf 68 d5 bb
       -0.061550856 0.19050738 0.14066307 -0.0065127383
0000c0 e4 3d d1 bc ef e1 7e 39 4d d9 3a 3c 37 b8 4f bd
       -0.025542207 0.00024307494 0.011404348 -0.05071279
0000d0 6b f3 f9 bc f3 ba e1 bd 8b 7a 1d be b2 a7 a1 3d
       -0.030511579 -0.11021986 -0.15378778 0.078933135
0000e0 2b 8b 00 3e 60 53 cb 3d 5e f9 81 3d 68 01 6e 3e
       0.12553088 0.09928012 0.06346391 0.23242724
0000f0 d4 47 6e 3c 38 ff fe bb bf e0 8a 3e b6 a5 82 bd
       0.014543492 -0.0077818893 0.27124593 -0.06379263
000100 dd a9 61 3d 2f 65 4a 3d d0 22 c7 3d 59 88 b0 bd
       0.055093635 0.049412902 0.09723437 -0.08619756
000110 31 6f 35 3d a0 a6 38 3e 4f 2b 50 b9 80 26 a8 3c
       0.044295494 0.18032312 -0.0001985256 0.02052617
000120 cc 08 f3 bd c9 00 a3 3d ce d5 b2 bc 42 2a 1d bd
       -0.11866912 0.07959134 -0.021830466 -0.03837038
000130 1e 02 1b bd 23 3a 09 3e 90 c7 19 be 76 6d 25 bd
       -0.037843816 0.13401084 -0.15017533 -0.040387593
000140 68 47 40 bd a0 ba d3 bd be 79 c1 bd 41 b3 ac ba
       -0.0469431 -0.1033833 -0.094470486 -0.001317598
000150 5e 8b 51 be a4 20 0c be c5 df b7 bd 95 63 0b bd
       -0.2046332 -0.13684326 -0.089782275 -0.034030516
000160 cb 35 32 be 1a 1a 3d bd 77 af 29 3e a4 67 08 be
       -0.17403333 -0.04616747 0.16570841 -0.13320786
000170 8d 75 e1 3d b5 78 21 3e 2f 4d ff 3d 9e 17 b5 bd
       0.11008749 0.15768702 0.124658935 -0.08842395
000180 0c ed 1d be fc ee 36 3d 02 07 a3 bd 51 fb b2 bd
       -0.15422457 0.044661507 -0.07960321 -0.08739341
000190 b7 28 19 be 80 ef db 3b 61 62 44 3d 4a 82 61 3e
       -0.14956938 0.0067119002 0.047945384 0.22022358
0001a0 74 76 9a bd 04 33 73 be 94 0c 8f bd fd 84 44 3e
       -0.075421244 -0.2374993 -0.06984821 0.19191356
0001b0 4a 06 88 bd 39 4c 3c 3d 80 9f 9c 3b ba 7a 26 3e
       -0.066418245 0.04597113 0.004779756 0.16257754
0001c0 bc ae 93 bc 21 8a 15 bd 78 b7 e7 3d 34 84 61 3e
       -0.018027656 -0.036508683 0.11314291 0.22023088
0001d0 e2 bc 30 3d da 23 6e 3d 74 ff 26 3e ab 57 1f be
       0.043148883 0.05813966 0.16308385 -0.15560786
0001e0 0a ce 26 be 9a ab bc bd da 79 f4 3d 62 1c 30 bd
       -0.16289535 -0.09212418 0.11937304 -0.042995818
0001f0 b9 6c 62 bc 5e 42 81 3d 9e 89 36 3e 83 c4 c6 3d
       -0.013819867 0.06311487 0.17825934 0.097054504
000200 70 5b 1c 3e 22 b0 d4 3d 67 1b 55 be ca 75 52 3d
       0.15269256 0.10385157 -0.20811234 0.051381864
000210 c7 d6 e7 3c 88 fc 02 3d 3f c8 fe 3c 17 cc c6 3c
       0.028300656 0.031979114 0.031101344 0.02426724
000220 14 c5 bb bd ce 0f 79 3d d7 37 1c 3e 1e 45 40 bd
       -0.09168449 0.06080609 0.15255676 -0.046940915
000230 f7 19 24 bd 69 07 13 3e f0 67 db bd 8a a5 17 bd
       -0.040063825 0.14358296 -0.10713184 -0.037023105
000240 4e cb af 3d de 85 04 be a7 a9 e8 bd 57 b9 0c 3e
       0.08583699 -0.12941691 -0.113604836 0.13742577
000250 bb 3c 44 bd 04 b4 3a 3d 3d aa d0 bc 80 94 24 bd
       -0.04790948 0.045581833 -0.025471801 -0.040180683
000260 c0 ef 3b 3e 23 3b 65 3d b0 20 bc 3d 8c 31 f8 bd
       0.18353176 0.0559646 0.09185922 -0.12118825
000270 bc 0c 23 3e fd fc b3 3d 54 77 ba 3d a5 43 29 be
       0.15922827 0.08788488 0.09104791 -0.1652971
000280 c9 9b 61 bd 06 83 7d bd cb 8b fe bd ff e2 61 bd
       -0.05508021 -0.06189253 -0.12429007 -0.05514812
000290 76 99 2b 3e 5d aa 57 bb c9 ba 6b 3d 02 5a e9 3c
       0.1675776 -0.003290794 0.05755118 0.028485302
0002a0 bb 86 f7 3d f4 f2 65 3e a7 72 0e 3d 06 28 9b bc
       0.12086245 0.2245596 0.03477731 -0.018939983
0002b0 56 81 8b b9 7f f8 4e be d1 bd 0b 3e fb 55 8b 3c
       -0.0002660851 -0.20211981 0.13646628 0.017008772
0002c0 54 06 88 3d da bf a6 3d 63 67 c9 bd f3 af 81 3c
       0.06641832 0.081420615 -0.098341726 0.01583097
0002d0 7e fa 5d 3d df 2e 22 be f3 c9 bd bd 92 ed 7b 3e
       0.054193966 -0.15838192 -0.092670344 0.24602345
0002e0 3e 7d f4 bd 0f f1 90 3d b3 39 55 3c 57 d5 6d 3e
       -0.119379506 0.07077228 0.013014245 0.23225914
0002f0 23 55 41 3e f6 7f 26 be 52 cf be bc 35 d8 11 be
       0.18880133 -0.1625975 -0.023292217 -0.14242633
000300 5e b0 1a bd b2 be 16 be 45 6d 6e 3d 54 8b 2f 3e
       -0.037765853 -0.14721182 0.058209676 0.17142993
000310 f0 44 ac 3a c3 d3 19 bc a4 4b e3 bd b0 42 9c 3d
       0.0013143104 -0.009388867 -0.11098412 0.07629907
000320 d7 4e a2 3c 57 65 bb bd 17 d5 b3 bd 2e ff 36 be
       0.019812984 -0.091501884 -0.08780878 -0.17870781
000330 e8 a2 8c bd 88 4d 33 bd 14 3a 27 3d ab 9a c2 bb
       -0.068670094 -0.04377511 0.040826872 -0.005938848
000340 6b a5 3b 3e 35 7b 0d 3e fb be 09 be e4 a3 49 3e
       0.1832482 0.13816531 -0.1345176 0.19691426
000350 b0 a2 83 be cb 45 48 3e d2 26 2d bd 6f 49 c5 3d
       -0.25710058 0.19557874 -0.04227335 0.09633147
000360 27 24 a1 bc 23 15 c5 3d 8d 51 45 3e a2 81 41 3d
       -0.01967056 0.09623172 0.1926939 0.047242768
000370 e1 8f e5 3d 24 87 48 3c 6b 48 c6 3c 1b d9 0b 3e
       0.11209083 0.012239251 0.024204453 0.13657038
000380 dc 2f 01 3d 09 a4 4b be 44 aa db 3d 9e 7f 09 3e
       0.031539783 -0.19886793 0.10725835 0.13427588
000390 74 b0 48 bb 0b 6d ee bd e4 dc dd bd 6f 8a cf bb
       -0.0030622752 -0.11641892 -0.10833147 -0.0063336412
0003a0 bf 48 b1 3d 5a 4b 9f bd ba 9f 37 3d 65 61 d5 3d
       0.08656453 -0.07778044 0.04483006 0.10418967
0003b0 87 2e 0a be 8c ad 59 3d ad f3 19 be 57 38 ab bd
       -0.13494311 0.053144023 -0.15034361 -0.08360355
0003c0 0d d5 ba 3d 98 40 2a 3e 03 e9 4c 3e 03 76 80 bc
       0.091226675 0.16626203 0.20010762 -0.015681272
0003d0 b0 3d 62 bd 13 15 a7 3d 6f 61 96 bd 11 b1 87 bd
       -0.05523461 0.081583165 -0.07342803 -0.066255696
0003e0 a5 46 b5 3d 96 f6 57 3d 10 19 30 3e 28 d2 25 3d
       0.08851365 0.052725397 0.1719706 0.040483624
0003f0 ff 98 f4 bd c2 60 c7 3c d3 f4 f3 bc 56 4a dd bd
       -0.11943244 0.02433813 -0.029779827 -0.10805194

fc.2.bias f4 [10]
000000 a9 b0 03 bb b9 1b 3e 3e 08 9e 82 3d 88 f0 f9 bd
       -0.0020094311 0.18565263 0.06377798 -0.12204081
000010 b6 45 b0 3c 50 60 89 3d ac 2e 8a 3d 03 24 06 bd
       0.021517616 0.06707823 0.06747183 -0.032749187
000020 77 e6 ac bd 9f 87 98 3d
       -0.08442395 0.07447743
